checkpoint.critic.pth (torch_old, 542544 bytes, 5 tensors)

fcs1.weight f4 [400, 33]
00000000: a903 bdbd 7079 f53d 6fe8 313d 1f51 f7bd
00000010: 5ac4 4f39 12da 1fbe 31ef f73d d1a3 86bc
00000020: c62f 4dbe 0f0c 82bd f643 6cbc 541c 0d3d
00000030: 0682 493d 35b2 10bb a573 e83d 8ca1 ff3c
00000040: a360 cdbb 160e 663d 89ef 003d 0f1f 103d
00000050: 2b23 0fbc c394 313d b71e 953d e34e 1f3d
00000060: a33a 1b3d 8c88 733d 645a b43d f09e 3c3c
00000070: 9b41 b33d 767f 9a3c 5c40 a1bc e487 793c
00000080: 8b13 1e3e e981 113d 8ba4 a93d 0f4e 05be
00000090: ba6b 053e 2ef1 d8bd d752 58bd 810a 013c
000000a0: b54a 3cbd 24f1 a33d 4a10 8d3d 156b 763d
000000b0: 2d0c b6bd c836 8bbc bfc2 693c ebb5 87bc
000000c0: d47c 243d 04f3 8fbe 4f7f 1c3e 3f33 2ebe
000000d0: 4e9f 65bc d307 3a3d a024 203d 9c6c f33c
000000e0: 4767 47bd 1016 543c 1441 6bbc c6de 083d
000000f0: 6eaf 2f3d 34f8 aebc 50bf b4bc f9db 91bd
00000100: d5e6 403d 8886 b83d ea77 d13c 1222 10bd
00000110: 3bc1 ea3c 4762 11bd 20bb 8fbd 2a29 4c3d
00000120: 8cf6 1cbe d011 0d3d ea69 7ebd 1a5c 86bd
00000130: 8e00 3ebd 156f 05bd e098 203d d6d7 b43c
00000140: 3710 ec3c f71f f6ba 5377 55bd b768 f73d
00000150: 2b56 7c3d 8003 343d 675d 143c 9588 e0bd
00000160: 2746 46bc a8a0 453d 72ea c3bc 2c2c 5a3c
00000170: 0af6 6cbd cb87 843c 6e79 ebbb e834 233c
00000180: b1b5 d43c 3062 14bd c3a1 953e 7481 36bd
00000190: ad55 e03b dfaf 06bd 753e 06be 0e04 1b3a
000001a0: ed60 9b3e f32f 9c3e 2d57 3d3d 0adf a83d
000001b0: 40db af3d ffeb 29bd 143e 0ebc c01e a5bc
000001c0: e4ab 87bb 0546 4bbc 5fda 77bc c46a 5cbd
000001d0: f533 933d 1ba8 cabd 0d38 1a3c 2bf5 bbbc
000001e0: 786c 2c3d 0520 d0bc 3b76 9d3b 2392 37bd
000001f0: 4d85 a93a e8f2 8fbc db28 253d abfa b9bb
00000200: 3402 8abc 6f49 e03c 986c 40bc 48e2 69be
00000210: fd1b 4bbd 5caf 583d a850 57bd 7f28 14bd
00000220: 5b08 683d 1d4c ce3b 393a ea3d 7f0c b93c
00000230: 7b95 3e3d d972 223c 94c1 ce3b 04a4 853b
00000240: cc55 183d 9b43 e43c baea 533c c5ad 783d
00000250: 153b 873d 7da8 c33d fbf4 3ebd 431f 5fbd
00000260: b018 debb a1f1 82bd cbc4 ed3b 4357 0fbc
00000270: 1844 703c f501 22bc a9d6 23bc 3f51 30bd
00000280: 2895 a2bd acad 0f3c 07bc 843b 6c52 8cbc
00000290: f336 2b3f 25c3 bfbc 7847 8fbd ccd3 963c
000002a0: 7435 4fbd bcd0 b63b 38eb 013e bf39 0dbe
000002b0: 012a 06bd 468b 00bd 1c29 5cbd cbcd 5f3d
000002c0: 5da2 b8bc da99 4f3c 200f ceba ae9f d6ba
000002d0: 116b b7bc dcf4 173d 2019 e6bd f960 29be
000002e0: a016 423d 10ad 033d db45 abbc a587 8fbc
000002f0: 5678 61bd b045 8fbd dc08 26bd 6f5b 37bd
00000300: e3dd bebc a668 d4bc fd04 1d3d ead1 6c3d
00000310: fd75 0c3d 0dd2 1ebe bb2f da3d d38b 583d
00000320: 580f 233c 965c 95be f01c a4bc cf1f 243c
00000330: 19ab 7e3e 150d 5ebb efa3 9dbd 5d21 c93d
00000340: 0aee 063c 501e 3d3d aff5 12bc 3859 c63d
00000350: b230 9e3d 0721 56bd 3603 0fbe 05f3 de3d
00000360: 6b76 0abe 9d13 833d 4458 13bd 0f0b 02bd
00000370: b730 c33c 7046 8f3d ca38 473d 499f 99bc
00000380: add4 213d eada 5f3d bda5 9a3d 64d1 723c
00000390: 42b0 833c e7cc dfbc 30ca e8bd 8565 b1bd
000003a0: 33f5 eb3c 92f9 a8bd a06a ce3c 1a0e 08bd
000003b0: 9e98 56bc c8c0 ddbd 3430 b93c 0060 9f3c
000003c0: 4c46 f83c 7505 433a b066 c6bc 8f3b c63c
000003d0: 6a74 ebba b8bc 523d f81f 8d3c 3114 b33e
000003e0: 32f7 083c e716 f63c 37fb babd 7984 233d
000003f0: 81e3 ffbc 110a 5ebd fced f0bc 4eee 9e3d
-0.09229214 0.11986053 0.043434557 -0.120760195 0.00019814205 -0.15610531 0.12106169 -0.016435536
-0.20037755 -0.06349956 -0.0144205 0.034450844 0.049196266 -0.0022078876 0.113501824 0.031204961
-0.0062676235 0.056165777 0.03147844 0.03518587 -0.008736412 0.04335476 0.07281249 0.03889359
0.037897717 0.059456393 0.08806303 0.011512503 0.087527476 0.018859606 -0.01968401 0.015230153
0.15437143 0.035524283 0.08283337 -0.13018058 0.13029376 -0.105928764 -0.052813377 0.0078760395
-0.045969684 0.08004978 0.068878725 0.060160715 -0.08889041 -0.016993895 0.0142676225 -0.016566237
0.040158108 -0.28115094 0.1528294 -0.17011736 -0.014015032 0.045417618 0.03909743 0.029714875
-0.048682477 0.012944713 -0.014358778 0.03341558 0.042891912 -0.021358587 -0.022063881 -0.071220346
0.04709514 0.09010035 0.025569875 -0.035188742 0.028656593 -0.035494115 -0.07018113 0.049843945
-0.15328425 0.034440815 -0.062112726 -0.06560536 -0.046387248 -0.03257664 0.039208293 0.022075575
0.028816326 -0.0018777837 -0.05211575 0.1208052 0.061605614 0.04394865 0.009055472 -0.10963551
-0.012101687 0.048248917 -0.023915503 0.013316195 -0.05785183 0.016178032 -0.0071861064 0.009961344
0.025965543 -0.03622645 0.29224977 -0.04455705 0.006846151 -0.032882567 -0.13109763 0.0005913385
0.30347386 0.30505332 0.046225715 0.08245666 0.085867405 -0.04148483 -0.008681793 -0.020156264
-0.004140364 -0.012406831 -0.015127747 -0.053812757 0.071876444 -0.09895345 0.009412778 -0.022944054
0.04209563 -0.025405893 0.004805354 -0.0448171 0.0012933403 -0.017571881 0.040322166 -0.005675634
-0.016846754 0.027378766 -0.011744641 -0.22840226 -0.04958724 0.05290161 -0.052567154 -0.036171433
0.056648593 0.0062956945 0.11436886 0.022588966 0.046529274 0.009915077 0.0063096974 0.00407839
0.037191197 0.027864268 0.012934381 0.060712595 0.06603066 0.09553621 -0.04662035 -0.054473173
-0.0067778453 -0.06393743 0.0072561256 -0.008748832 0.014664672 -0.009888162 -0.009999909 -0.043046232
-0.079386055 0.008769434 0.004050735 -0.017129146 0.6688072 -0.023408482 -0.069960535 0.01841154
-0.050588086 0.0055790823 0.12687385 -0.1379156 -0.0327549 -0.03138282 -0.053750142 0.05463962
-0.022538358 0.012670958 -0.001572106 -0.0016374493 -0.02238992 0.03709875 -0.11235261 -0.16540898
0.047384858 0.032147467 -0.020907333 -0.017520735 -0.055046402 -0.06995714 -0.040535793 -0.044764932
-0.023299163 -0.025928807 0.038334835 0.057817377 0.03429221 -0.15509816 0.10653635 0.05286772
0.009952389 -0.291722 -0.02003333 0.010017349 0.24869956 -0.003388231 -0.076972835 0.09820817
0.008235464 0.046171486 -0.008969708 0.09684986 0.07724132 -0.05227759 -0.13966069 0.10886196
-0.13521735 0.06400225 -0.03597285 -0.031748828 0.02382694 0.06995857 0.048638143 -0.01875271
0.039509464 0.054652132 0.07551143 0.01482043 0.016075257 -0.027319385 -0.11366689 -0.086619414
0.028803444 -0.08250727 0.025197327 -0.033216573 -0.01309791 -0.10827786 0.022605993 0.019454956
0.030306958 0.0007439473 -0.024218887 0.024198322 -0.0017963771 0.051449507 0.017227158 0.34976342
0.008359717 0.030040218 -0.09129947 0.039921258 -0.031236412 -0.05420882 -0.029410355 0.07760297

fcs1.bias f4 [400]
00000000: cb24 86bd 5ad6 01be 14cb 2a3e fded 0e3c
00000010: d1c6 08be 9f80 bbbd 78d8 1fbe ad3c 23be
00000020: 20c5 f2bd b359 02be d439 b13d bcfe c6bd
00000030: 7539 2a3e 6160 e4bc 9900 1cbe 75f1 04be
00000040: 836f b8bd bee1 2dbe 16bf 33be 0a54 44bc
00000050: 59ec 1dbe 6183 b6bd becf 07be d4ea 34be
00000060: 6451 9fbd 5ca9 6fbe 8808 dbbd 1707 2d3e
00000070: dd9d a93d fa25 fabb 879c 633d f8de 0e3e
00000080: 51d1 123e 0bed 02be 1cbd eebc 9254 bebd
00000090: 5f7f 00be d28f e83d d611 013e cf7e 263c
000000a0: 1672 ea3d e777 793d 165f 293e 3510 3f3d
000000b0: fd23 1d3d 1966 913d 586a a03d 01f4 233e
000000c0: 39da 2f3d d954 dbbd a40b 0d3d 5bde 173e
000000d0: 6da4 be3d 1634 be3d a99b bcbd b8f4 063e
000000e0: 00ed 4c3c 9e58 e7bd ffe3 acbc 8f9c 863d
000000f0: f837 36be 22bd b9bd cb58 0a3e 01fc b6bd
00000100: f73b 6dbd cbaa ccbd 9bcb e13c deea 48be
00000110: 6e63 15bd fbe7 a4bd c81d b13c 01d4 abbc
00000120: 021a 913c 1859 ccbd f56d 0f3e 339d 793d
00000130: 3fba e5bd 65d1 77bd 87a8 de3d 81b8 4bbd
00000140: a485 aebc 1bca 33bd 552e 8ebd f6eb 75bd
00000150: 72d6 56bd ac44 0b3e 103a a33c d0bc 893d
00000160: 354c 503d a1ca a8bd f7b7 d4bd d8cc 6cbb
00000170: 67c4 be3c 8d64 1bbd e61e 9dbd 4eb4 1fbe
00000180: e74d 3bbd bdca 8e3d c406 f4bc 9aaa 803d
00000190: c891 ecbd 61e4 c13d 86d6 f5bd 3839 223e
000001a0: 7866 e73c 9f99 403e 0b62 cd3d 14a7 83bd
000001b0: 30f7 7abd 5c54 e2bd 8993 4f3d 415c 14be
000001c0: dd44 c8bd c56f edbd 259e a83d cc7b e43d
000001d0: ca94 a43c 4297 c6bd bea5 c6bd dbec 0abe
000001e0: 0de0 42be a4eb 24be 8b82 26be 49be 183d
000001f0: c149 19be 544f e73c 925e 8c3d 8178 78bd
00000200: 302a 37b9 fdb5 023e d293 6ebe 37d8 0f3e
00000210: 8b0d 073e f882 d83d 5dfa efbd 82a7 2b3d
00000220: 2b0a 9fbd a24a 90bc 03c9 cc3d c60f c13b
00000230: e783 073d 0b6b 25bd 1d24 d9bd a9ea cc3d
00000240: f0b1 4cbe 5df5 73bd cd6a 05bd c5f4 72bd
00000250: 5f99 48be 99e1 e1bd a723 4bbe 8e97 ea3c
00000260: ac5e 0e3d 6894 2fbe d2a6 97bd a15b 56be
00000270: ef6f 893d 74bd 37be 4de1 b0bd 69b8 8abd
00000280: b339 09be 1453 ed3d ac58 2b3d d782 de3d
00000290: f2c3 d33d 5707 d3bd 6616 8a3d 244b e93d
000002a0: 2f88 85bd a1c6 8bbd 994b 62bc 50db 1ebe
000002b0: 189a bebc c424 9ebd f4d5 d5bd e0e6 733d
000002c0: d238 5bbe f51e 00be ca14 963d e62b 0b3d
000002d0: b789 09bc 0296 b2bc 404f 2bbe 7810 3abe
000002e0: c742 b1bd 307c ffbd e3eb e7bd c9ba a8bd
000002f0: e4ec e83d 0414 a73d 8da8 0fbc 109c 1ebe
00000300: c6b3 ccbd 403f 033e 84b3 103c 06c9 243c
00000310: 46d6 0abe 5a1b f2bd d77a c73b c35f 173a
00000320: 677b dbbc b7d3 c5bd 3caa 11be 72e1 13be
00000330: 35da 61be 45f2 163e 6e00 b1bc 6378 7e3c
00000340: c2eb 053e f455 823d 0737 32bd 189d af3d
00000350: b33e f93c b653 31be d347 fe3d 2ece bcbd
00000360: 3bfd c3bd ea22 0abe c14d 06bb d4df 2f3e
00000370: e366 e0bd 8cb0 2fbe 96b3 2dbe b4b1 a7bd
00000380: 95f2 253e 7dd4 92bd 4f46 af3d 1879 a73c
00000390: e919 ef3d 3622 c5bd 45e2 d73d 4dfb 203d
000003a0: 48b4 7b3c ff8e 16be bfb8 bfbd 5144 1c3e
000003b0: 6c78 76bc 26a8 3cbe 00da 9cbd a371 5abd
000003c0: de6c 6e3d 4237 02be e5dc 023e 0c02 8a3d
000003d0: fc63 13be 5eca 12bd 8508 a03d 1d7d d03d
000003e0: 88e1 47bd b89f eabd 9adf 0339 d121 673d
000003f0: 6e70 dfbc 0ffa f7bd e138 083e 6f97 053d
-0.065499865 -0.12679425 0.1667903 0.008723733 -0.13357092 -0.09155392 -0.1560992 -0.15941115
-0.11854005 -0.1272953 0.08653608 -0.097165555 0.1662348 -0.027877988 -0.15234603 -0.12982734
-0.09005644 -0.16980645 -0.17553362 -0.011982927 -0.1542219 -0.08911777 -0.13262841 -0.17667705
-0.07779196 -0.23404449 -0.106949866 0.16897236 0.08282063 -0.0076339217 0.055569198 0.13952243
0.1433766 -0.12785737 -0.029142909 -0.09293474 -0.12548588 0.113555565 0.1260446 0.010162069
0.114475414 0.060905363 0.16540179 0.046646316 0.0383644 0.07099552 0.078327835 0.16011049
0.042932723 -0.10709543 0.03443493 0.14830916 0.093087055 0.09287278 -0.09209377 0.1317929
0.012507677 -0.11296199 -0.02110481 0.0657283 -0.17794788 -0.09069277 0.13510434 -0.08934785
-0.057918515 -0.09993514 0.027562907 -0.19620845 -0.036471777 -0.08052059 0.021620646 -0.020975115
0.017712597 -0.09977931 0.14006789 0.060940932 -0.11217164 -0.06050243 0.10871988 -0.049736504
-0.02130396 -0.043893915 -0.06942431 -0.060039483 -0.052450605 0.13600415 0.019925147 0.06725466
0.050853927 -0.082417734 -0.10386651 -0.0036132839 0.023287011 -0.03793769 -0.07671909 -0.15596125
-0.04572859 0.06972263 -0.029788382 0.0628254 -0.11551243 0.09467388 -0.12003808 0.1584214
0.028247103 0.18808602 0.10028466 -0.06428352 -0.061270893 -0.110512465 0.05067781 -0.14488317
-0.0977876 -0.11593584 0.08233289 0.11156425 0.02009048 -0.09696819 -0.096995816 -0.13566916
-0.19030781 -0.16105515 -0.16260736 0.037290845 -0.14969541 0.028236069 0.06853975 -0.060661796
-0.00017467956 0.12764736 -0.23298576 0.14047323 0.1318876 0.10571855 -0.11717675 0.041907795
-0.07765611 -0.017613713 0.099992774 0.005891773 0.033084776 -0.040385287 -0.10602591 0.100056954
-0.19989753 -0.05956017 -0.032572556 -0.05931546 -0.19589756 -0.110293575 -0.19837819 0.02863672
0.034758255 -0.17146456 -0.07404865 -0.20933391 0.06710803 -0.17943364 -0.08636723 -0.06773455
-0.13400917 0.115881115 0.04183261 0.108647995 0.10340108 -0.10304134 0.067425534 0.11391285
-0.065201156 -0.06824995 -0.013811969 -0.15513349 -0.023266837 -0.07721856 -0.10441199 0.05954635
-0.21408394 -0.12511809 0.07328184 0.03397741 -0.00839465 -0.021800045 -0.1672945 -0.18170345
-0.08655315 -0.12474859 -0.11324289 -0.082387514 0.11373308 0.081581146 -0.008768213 -0.1548922
-0.099952266 0.12817097 0.008831862 0.010057693 -0.13558301 -0.11821623 0.0060876417 0.00057744625
-0.026792241 -0.09659522 -0.14225096 -0.1444147 -0.22055896 0.14740856 -0.02160665 0.015531632
0.13078216 0.063640505 -0.04350951 0.08574885 0.030425405 -0.1731709 0.12416043 -0.09219013
-0.09569784 -0.13489881 -0.0020493122 0.17175227 -0.10957124 -0.17157191 -0.16963038 -0.08188191
0.16205819 -0.07169435 0.08558332 0.020443484 0.11674864 -0.09625666 0.10541204 0.03930216
0.015362807 -0.14702986 -0.093614094 0.15260436 -0.015043359 -0.18423519 -0.07658768 -0.05333103
0.058209293 -0.12716392 0.12779577 0.06738672 -0.1439361 -0.035837524 0.07814125 0.101801135
-0.048799068 -0.11456245 0.00012576432 0.056428734 -0.02727529 -0.12108242 0.13302948 0.03261512

fc2.weight f4 [300, 404]
00000000: a125 8d3d af70 c0bd a227 87bd 8345 f1bc
00000010: f127 743d fd15 783d 5de5 dcbd 61f6 2cbb
00000020: 2858 c33d 3105 2abd 4c85 e43c 8666 2ebd
00000030: 7cd7 a23c b190 303c de6a 81bd 59b0 a2bd
00000040: 5c49 69ba efd4 693c 2bbb d13c 19a3 c23c
00000050: c077 3c3d 6669 3e3b 5bea 79bb 853e a8b8
00000060: c7e0 8b3c d17b cfbd 4259 60bb b514 98bd
00000070: 6e74 9fbc 1b87 9dbc 6f45 b63c 2da7 61bc
00000080: ee91 b3bd d4d0 903c 6f30 3c3c 9d1a b63c
00000090: 4c38 023d 90d0 a0bc e4d8 edbc 3870 26bd
000000a0: 8139 083c 321e 6cbd 2743 97bd a160 ba3c
000000b0: 1eeb f4bd c0e8 363d 33ac 54bd 7809 ff3b
000000c0: 0a00 083d 0316 f53c 712a 5abd 7e8f d0bc
000000d0: 3163 f3bc 9801 49bd 36c9 6f3d 8def dcbc
000000e0: e800 ef3c 1820 e5bc 1079 69bd 42ff 8cbb
000000f0: 45fa 44bc 4825 49bd 86d7 d0bc 6551 8abc
00000100: a3ac 4e3d 3ee0 8a3c 3199 4fbd 2248 403d
00000110: 1b47 38bc c87a 06bc e7b1 993c f0f1 723d
00000120: 64f8 6c3d 3274 8abd 362b eabc 4f7d cabb
00000130: 83f9 30bd c345 59bd 748e 6b3d 0364 04bd
00000140: c686 5fbc e777 32bc 2fce 67bc 7572 73bd
00000150: c33a 0ebd dc3a 0e3c 142e ea3d d33c a8bd
00000160: c59d 583d 09df b23c e162 113e daa4 2ebe
00000170: 27b7 a13d 3d79 cabc 9b0e 67bc e4b2 343c
00000180: c5b9 01bd bc89 d7bd 45d7 6dbd 33e8 4b3a
00000190: b78b 30bd efaf 16bd 722c 1bbe 16d5 243d
000001a0: 1752 383d c666 ccbd b9bd 6d3d 7ce2 13bd
000001b0: f038 d1bb 82c6 9b3d 4906 bf3c 2ef2 2b3d
000001c0: 3b06 593d ecdb 85bd aae8 b1bd 6a5f 4cbd
000001d0: 2ecb 1f3d db61 88bd eb3f 11bd d5fa 42bd
000001e0: 90fa ea3c 4aa6 79bc 1bfd 373c 6aee 1fbd
000001f0: 98bb 3fbc 1d93 18bd fbc4 a93c 127e a53d
00000200: d667 dfbc 9abf 67bd bd99 a73d 3da4 a43d
00000210: 97e9 54bc 4ec2 3dbd e32b f33b 49cb c93b
00000220: 08ba 33bd 7846 873d ed94 9abd e4f2 873c
00000230: bf14 84bc 72af 18bd 3bd2 0b3d 01cb d5bd
00000240: 12d6 383d d699 1abc 46c7 253d 241f 68bd
00000250: 10db 083d 8f39 b7bc 827e d13c 1675 02be
00000260: f1f5 21ba 31f6 ee3d e998 a33d 083f 40bc
00000270: 213c 4fbd 2086 cc3c 1aca b5bb 9cf1 003a
00000280: b0af 8c3d aff0 88bd 6ec7 493d 329d a5bc
00000290: 790b 4dbd 4e5e bf3d a45e 493d eeb2 0dbd
000002a0: bf52 d5bc 5198 643c 60c3 7a3d 35d3 59b9
000002b0: 41ae 68bd e66c de3c f0df bbbb 82f5 bbbc
000002c0: b2ff cf3d 0a49 e73c bd9d 303a 2f50 263d
000002d0: 2c59 09bd 2cc9 37bc 3e4f 923d e012 13bd
000002e0: 32c7 c53c cfa2 a6bd 50e4 e0bc 1dc4 6eba
000002f0: 0726 1ebc 5449 8e3c 0a58 3ebd 5b7d 763d
00000300: d2fc 113b 0fe0 a4bd a77a dc3c 5740 683d
00000310: 1388 25bb d45a f0bc 84d1 23bd d3b2 ce3d
00000320: d011 05bd c784 983c 8cfa 663c f1b4 bf3c
00000330: c267 db3b 8407 9fbd f52b 75bc 18a8 c63c
00000340: cabd 9ebd bf4f 023d 80fe 163d c0c2 f1bc
00000350: 33ad adbd f6d4 65bc c5b9 0bbd 299a 803d
00000360: 3944 d83b 3c75 1fbd a83e 053d 6028 6fbd
00000370: 25cb 8e3d c65e acbd 48fb 25be df69 c83d
00000380: 3a9b 213d 8876 13bd 12fb 8f3c d9f9 aebc
00000390: b2ed 2c3d d2d7 813c 06e9 06bd 580d afbb
000003a0: 752d 17bc ba2a 8abd cf78 e7bc 7f72 e73a
000003b0: 6376 d03b 77e2 58bd 73d0 24bd ea2b 873b
000003c0: 6837 c83c 93fc eabc 4976 173c 73fb ccbc
000003d0: 124f 0e3d c101 9a3c 07eb 2ebc 73c6 073d
000003e0: 8e56 d5bd 3b56 203c f0ae 853c 00d1 d6bb
000003f0: 9199 46bc 1557 d6bd 36c7 b53c 7d02 4dbc
0.06891943 -0.09396493 -0.06599356 -0.029452091 0.059608404 0.060567845 -0.10785935 -0.002639197
0.09538299 -0.041508857 0.027895592 -0.042578243 0.019878142 0.010776685 -0.063192114 -0.07943792
-0.0008899176 0.014271959 0.025601944 0.023759412 0.04601264 0.0029054522 -0.0038134072 -8.0225094e-05
0.017074956 -0.10131038 -0.003423289 -0.074258246 -0.019464698 -0.019229462 0.022249905 -0.013772768
-0.08768068 0.017677702 0.011486157 0.022229487 0.03179197 -0.0196307 -0.029034086 -0.040634364
0.008314491 -0.057645984 -0.07385855 0.022751154 -0.119589075 0.04465556 -0.051922034 0.007783111
0.033203162 0.029917723 -0.05326313 -0.025459047 -0.029710384 -0.049073786 0.0585415 -0.026969695
0.029175237 -0.027969405 -0.05700022 -0.00430289 -0.0120225595 -0.04910782 -0.025493395 -0.016884515
0.050457608 0.01695263 -0.050683204 0.04694379 -0.011247422 -0.008207984 0.018761588 0.05931276
0.05785407 -0.06760444 -0.028585058 -0.0061794887 -0.043206703 -0.053045046 0.0575089 -0.03232194
-0.013642972 -0.010892845 -0.014148279 -0.059435327 -0.03472401 0.008681025 0.1143457 -0.08214726
0.052884836 0.021834867 0.14197876 -0.17055073 0.07896262 -0.024716014 -0.014102603 0.011028979
-0.031671304 -0.105243176 -0.058066625 0.0007778436 -0.043101992 -0.036788877 -0.15153673 0.040242277
0.045000162 -0.0998054 0.05804226 -0.036104664 -0.0063849613 0.07606222 0.023318427 0.041979007
0.052984457 -0.065360874 -0.08686955 -0.04989568 0.039012127 -0.066592894 -0.035461348 -0.047602493
0.02868393 -0.0152374 0.011229779 -0.03904573 -0.011702441 -0.037249673 0.02072381 0.08080687
-0.027271193 -0.05657921 0.0818362 0.080391385 -0.012995145 -0.04632788 0.007421003 0.0061582667
-0.043878585 0.06605238 -0.075479366 0.016595311 -0.016123174 -0.037276693 0.03413604 -0.104391105
0.04512603 -0.009436091 0.040473245 -0.056670323 0.03341204 -0.022366313 0.025573019 -0.12739977
-0.0006178311 0.11668051 0.0798815 -0.011733778 -0.050594453 0.0249663 -0.005547774 0.0004918815
0.06869447 -0.06686532 0.049262457 -0.020216558 -0.05005977 0.09344159 0.049162522 -0.03459447
-0.026040433 0.013952331 0.06122148 -0.00020773413 -0.056806806 0.027151536 -0.0057334825 -0.022944216
0.10156192 0.02823307 0.0006737372 0.040603813 -0.033532307 -0.011217397 0.071440205 -0.035906672
0.024142835 -0.08136522 -0.027452618 -0.00091082026 -0.009652621 0.01736895 -0.04647068 0.060178142
0.0022275937 -0.08050548 0.026913954 0.056701984 -0.0025258109 -0.029340185 -0.03999473 0.10092702
-0.03248769 0.018618 0.014097821 0.02340171 0.0066957185 -0.07765105 -0.014964093 0.024250075
-0.07751043 0.031814333 0.036863804 -0.02951181 -0.08480301 -0.014027825 -0.03411271 0.06279404
0.0065999296 -0.038930163 0.032530457 -0.058388114 0.069723405 -0.08416514 -0.16209137 0.09785818
0.039454676 -0.036001712 0.017575774 -0.021359371 0.04221887 0.015849981 -0.032937072 -0.005342167
-0.009227146 -0.06746431 -0.028255848 0.0017658024 0.006361769 -0.05295035 -0.040237855 0.004125108
0.024440482 -0.02868489 0.00924451 -0.025022244 0.034743376 0.018799664 -0.010676152 0.03314824
-0.104168996 0.009786184 0.016318768 -0.0065556765 -0.012121574 -0.10465828 0.022189718 -0.0125128

fc2.bias f4 [300]
00000000: 8a9b 55bd ba0f ca3c d73f 72bd f324 a53c
00000010: 0b7a 2fbc b334 cabb 0331 263d aae1 a6bd
00000020: 5906 a83c f9f5 43bd 1b33 f03c ab09 853d
00000030: 5c16 4dbc fb0e 943d b2d7 aabb 9d66 e33b
00000040: 43c4 663b ef30 13bd 74e2 84bd ff26 7b3c
00000050: a23b a73a ede6 61bc 4d5b a9bc c710 10bd
00000060: 7c46 333b 4be7 893c 4f58 38bd c561 44bc
00000070: 3c44 583d 77b9 c13c 166f 37bb df4c 3f3c
00000080: 5ad7 84bb aa9d 51bc 1713 39bc 0b82 cfbb
00000090: 34ae af3c 2550 b139 f5fe f4bc 610f 2ebd
000000a0: f0a1 88bd cc61 c9bb 3385 6f3c d7b9 5d3d
000000b0: e432 4bbd 5766 95bc 221f 97bd 1683 513d
000000c0: 0a33 233c 9c88 7bbd f0a9 123d f02a 793a
000000d0: adba bf3d 2c38 533d 1fed 9d3c dadd 963d
000000e0: 8588 a53b 75c6 193c 92a3 5cbd 0a7a 6a3d
000000f0: 9c2b 193d 4ebc 2e3d afec 753b a197 473d
00000100: 964e 9c3d b6b2 bd3d 6907 afbb 240d e3bc
00000110: b414 e23c 3131 e2bc db0c 9ebb 41d4 9ebd
00000120: 66ad a5bc 6fa8 aa3d dc9e abbc d918 cc3b
00000130: c65b b0bc 97b2 bdbc 623b cfbc 52a6 863d
00000140: 2798 b93d 5806 283d 2288 a6bb 2581 b93d
00000150: 35bb 80bd 278c 44bc 7bc7 92bd 09ef fb3c
00000160: 3aea b63d d0e4 8dbd 6e7e dcbc b3d9 6e3c
00000170: 9808 b4bb f457 893c 4fd3 403c c0be 28bc
00000180: fe97 653d cff4 883c 847f acbd 3f95 323c
00000190: e180 1fbd 7d86 78bc fe16 0cbc c07c dcbc
000001a0: a2c7 a53d 56c9 1dbd 517f 6eba 473f cdbc
000001b0: b586 133c e965 433d 8d52 a83c 4210 1b3d
000001c0: 18b0 89bd 0053 2abd b7d9 2e3b ccdc d63c
000001d0: 34b4 37bd 46f9 8f3d c0c4 393d 5cfc 983d
000001e0: 483a d2bc 5572 963c 41e9 7c3d f0a4 543b
000001f0: 4b39 9c3b 11e4 153d 9c74 63bd 604d 65bb
00000200: 3007 8e3d 2e8d bebc 2505 1cbd fef6 26bc
00000210: 6e04 22ba 436f 35bd b301 4fbd fca0 e7bc
00000220: 4717 72bd ba1b 20bd 496f 673c 3e52 153d
00000230: 0de6 ef3c b6ea c33c 5576 afbc e979 83ba
00000240: eb17 7d3d e8d0 c03c 3840 63bc b6ea e1bc
00000250: 2f8e e1bb 2671 1fbc d53e abbd 01bd 473d
00000260: 6e69 58bc 2d6d d6bb f533 95bc 73eb a6bd
00000270: 01e6 a8bc ce4e ccba c5b1 da3b 2fb2 933c
00000280: 0ec1 c3ba e0eb 81bd 6ede 4e3d 96e8 08bd
00000290: 5169 6cbd 68ce 61bc f142 f6bc c4d8 0f3d
000002a0: 2ace 98bc 8efd 3cbd 3999 86bc e124 833c
000002b0: 0a89 b13c c267 1bbd 98a9 b8bc 4180 a03c
000002c0: 869b a7b9 e4ac bc3d b9da 603d 7b79 8ebc
000002d0: 3f40 91bd db57 dabc d259 1bbd 1ccd d8bc
000002e0: 3686 7bbd edb8 533d 25c1 053d 7111 61bd
000002f0: b4c7 a6bc 6e88 46bc 2017 b63b 8eea e0bc
00000300: fbc9 913d 7579 9bbc c91a b03a 4933 983d
00000310: eaeb 1abc 24ea 1e3d 664d 95bd ccdf 343d
00000320: 0585 8ebc 4f85 07bc efb7 d8bc 8cc0 eb3c
00000330: 41b9 35bd 7efa 143d 5f92 583d 1852 f23c
00000340: cf19 413d 86e2 fd3c 96c0 88bd 8847 713d
00000350: 0deb a93d 1419 c8bc 2756 78bd da0f 7bbd
00000360: d859 0a3b 7327 0b39 f612 daba fea2 943d
00000370: c1b3 1bbc 8cae f7bc 2b0f 21bd 4ced 70bd
00000380: c833 343c 0ec2 473d 7757 703d 37f9 3bbd
00000390: 42e0 103c 8efc 863d 66d8 fc3b cdeb 7f3d
000003a0: cf8e a93d 295f 16bc 76cd 7c3c 0c74 4abd
000003b0: 2e2e bfbb 82fa 403d 6195 e9bb 2300 22bd
000003c0: 2b7f 43bd 15be 8f3c 0cdf 173d 5e6e 5f3c
000003d0: 925c 84bd 1504 07bd 0c3e 41bd e79c 0e3d
000003e0: a462 57bc 403c 273c 66bd 95bc e277 0dbc
000003f0: 59f9 463d 7e33 3f3d 5275 19bd 9965 8c3b
-0.052150287 0.024665702 -0.059142914 0.02015922 -0.01071025 -0.006170833 0.040574085 -0.08148511
0.02051084 -0.047842 0.029321244 0.06495985 -0.012517538 0.0722942 -0.005213701 0.0069397227
0.0035212196 -0.03593534 -0.06488505 0.015329122 0.0012758861 -0.013787967 -0.020673418 -0.03517225
0.0027355244 0.016833922 -0.045006093 -0.011986201 0.05279945 0.023648007 -0.0027989796 0.011676042
-0.004053992 -0.012793938 -0.011296055 -0.006332641 0.021445371 0.00033819783 -0.02990673 -0.042495135
-0.06671512 -0.0061456915 0.0146191595 0.05413231 -0.04960908 -0.018237276 -0.07378985 0.051150404
0.009960899 -0.061409578 0.035806596 0.00095049944 0.093617775 0.05156724 0.019278107 0.073665336
0.005051675 0.009385695 -0.05386693 0.05724529 0.037395105 0.04266005 0.0037525108 0.04872859
0.076321766 0.09262602 -0.0053414595 -0.027716227 0.027597763 -0.027611347 -0.00482331 -0.07755328
-0.020224284 0.083329074 -0.020949773 0.006228548 -0.021528136 -0.023156447 -0.02529687 0.06574692
0.09062224 0.041021675 -0.0050821463 0.090578355 -0.06285707 -0.011996306 -0.07166954 0.03075363
0.08931394 -0.06928408 -0.026915755 0.014578271 -0.0054941885 0.016765572 0.01176913 -0.010299385
0.056053154 0.016718296 -0.08422759 0.010899841 -0.038941268 -0.015168783 -0.008550404 -0.026914954
0.080947176 -0.038522087 -0.0009097951 -0.025054587 0.009004285 0.04770461 0.020547176 0.0378573
-0.0672304 -0.04158306 0.002668006 0.026228331 -0.04484959 0.07029967 0.04535365 0.07470009
-0.025662556 0.018365065 0.061745886 0.0032446943 0.004767572 0.036594454 -0.05553113 -0.0034988746
0.06934965 -0.02326068 -0.038090844 -0.010190723 -0.00061804696 -0.04429556 -0.05053873 -0.028275006
-0.05910423 -0.039088942 0.014125654 0.036455385 0.029284501 0.02391563 -0.02141873 -0.0010030839
0.061790388 0.023537114 -0.013870291 -0.02757774 -0.0068834047 -0.0097315665 -0.08361594 0.048764233
-0.01320873 -0.0065437765 -0.018213252 -0.08150377 -0.020617487 -0.001558745 0.006674024 0.0180293
-0.0014934854 -0.06343818 0.050505094 -0.033424936 -0.057717625 -0.013782121 -0.030061217 0.035118833
-0.018652994 -0.046140246 -0.016430484 0.016008796 0.02167179 -0.037940748 -0.022541806 0.019592406
-0.00031968596 0.09212664 0.05489609 -0.01739191 -0.07092332 -0.02665322 -0.037927456 -0.026464991
-0.06140729 0.05169003 0.0326549 -0.054948274 -0.020358898 -0.012117488 0.005556956 -0.027455594
0.07118603 -0.018978814 0.0013435717 0.07431657 -0.00945566 0.038797513 -0.07290153 0.04415874
-0.017397413 -0.008271529 -0.026454894 0.028778337 -0.044366125 0.0363717 0.052873965 0.029580161
0.047143754 0.030991804 -0.06677358 0.05890611 0.082967855 -0.02442602 -0.060629036 -0.061294414
0.002111068 0.00013270769 -0.0016637731 0.07257651 -0.009503306 -0.030234598 -0.039321106 -0.058820054
0.010998674 0.04876905 0.058677163 -0.045891967 0.00884253 0.0659114 0.0077162264 0.062480737
0.08279192 -0.009177961 0.015429845 -0.049427077 -0.0058343625 0.047113903 -0.007128403 -0.03955091
-0.0477287 0.017546693 0.03707795 0.013637153 -0.06462969 -0.032962877 -0.047178313 0.034817602
-0.013146076 0.010207236 -0.018278789 -0.008634539 0.04857764 0.046679966 -0.0374654 0.0042845723

fc3.weight f4 [1, 300]
00000000: 6cc6 dabd da94 d9bd add9 09be c4ee 413d
00000010: 218c d9bd 1344 ffbd 9b90 a43d 9a8f 56bd
00000020: e2e1 45be 9d81 8dbd 3060 02be dfe9 ce3d
00000030: 0d3c 66be cf41 fa3c f0fe 813d 0e17 fd3d
00000040: e2ad abbd 96ca ba3e e378 3dbd 223c 643e
00000050: 905c 87bd 7706 093e 1dbb eabd 2d00 cc3d
00000060: 2079 e83d ebe0 6b3d a6bb 9fbd bc04 89bd
00000070: 6f2d ac3d 283e 113e 4b02 91bd ac4e 4a3d
00000080: 1552 923d 9631 dc3d b8a3 81bd b7ef 2d3d
00000090: f98a 41be d58d 703d 66fc 2fbe f3a5 01be
000000a0: ee44 c5bd f8dd cc3c e81d acbd 37c5 643d
000000b0: c541 22be 2ce0 23be 0b24 afbd 7579 463d
000000c0: 67c5 babd c220 9ebd 5623 b53e eb55 a43e
000000d0: 3ba6 e83c adb8 df3d 69f1 3b3e 3868 8a3d
000000e0: 1316 e0bd a5f0 e43c 82f3 87bd bcdd 793d
000000f0: 372f 843e 8f8b 84be 4dfe 5a3e 8223 533e
00000100: 4ccd fb3c c58f 8e3d c4cc 97bd c65c 3a3d
00000110: efb6 f43c dd05 c3bd 76d8 b03d c10f a4bd
00000120: 1ce6 733e a556 243d d66e 803e 42fc f03d
00000130: c3ad 9cbd 01ca 8c3e d22b 12be 66f3 093d
00000140: a051 3e3d 7fa2 b63e 9a6d 77be 7836 503d
00000150: 48ac febd 0ca3 813d b5f3 12be d950 61be
00000160: f955 f33c d9ec 20be ddb1 f0bd 4a18 b63d
00000170: 70f6 8cbd c7b3 f73d e5f2 7d3e e114 503e
00000180: 1cce e53d 5170 763e b483 89bd bf14 b63e
00000190: 879a 0dbe 96d3 e3bd 1c05 c93e 5a10 5dbd
000001a0: d1a0 bc3d 50a5 16bd cd2c 82bd 7d1e 633e
000001b0: 6f47 4d3e d08c d73d 2823 5bbd 523b 4f3e
000001c0: 2c46 e0bd dcc1 e6bd adb6 adbd 9c8a 9a3d
000001d0: dacd c6bd fc6e ee3d 03f4 ea3e 8828 2e3d
000001e0: d21f 523e 82c1 263e e4ad 043e bd3c debd
000001f0: 9ae7 423e f33e f73d c807 c9bd 3fa8 b13e
00000200: 73f3 cf3d 57e6 d13e 6f16 dcbd e575 b0bd
00000210: 712d 2cbe 39d4 96bd a3d7 dabd adf8 c5bd
00000220: 99b6 78bd 6e19 12ba 0aef 743d 9927 983e
00000230: 50df 8e3d 8f09 b0bd 3f01 0a3e 9fb6 15be
00000240: b3da 933d 3f61 4d3d ac9a 803e 2a62 01be
00000250: ae08 5a3d d5f1 ccbd 8714 d3bd c225 813d
00000260: 8d23 39bd 0d22 b6be 20b0 3f3e f1f3 8fbd
00000270: 16a9 ab3e 6582 67bd fa64 9b3d ebc2 b33e
00000280: 1312 1f3d 4191 1bbe 8038 253d 5572 433e
00000290: 581e c7bd 97dd 64bd 5612 a33e 501a bf3d
000002a0: ac0b d13d f482 b4bd 01f4 c1bd 537b 8b3e
000002b0: 7593 29be e121 3b3e 1c29 0e3e 1264 023e
000002c0: b2bf 873d ce97 fd3c 7607 cf3d f50f a0bd
000002d0: f869 a4bd 886c dbbd 7de6 d93e ec05 5fbe
000002e0: 2d7d a9bd b4ff 163e 9f1a a03e 4a40 d7bd
000002f0: 1a06 2dbe 0880 f6bd c935 50be 2fb2 88bd
00000300: 2413 b83d f0bc a3bd 38c2 973e 2a9d 4b3d
00000310: c70f 2bbe 75ec 463d 9f10 14be 6c23 ee3d
00000320: 7ec2 cfbd 07d9 93bd 9ce5 7fbd 80e0 123e
00000330: fc92 e8bd c5ec 3c3d 1298 c83d 12c2 ce3e
00000340: 7767 9a3d 8ec8 923d 58e7 20be 8840 343d
00000350: e834 8a3d 6b2b b4bd 7ab2 c2bd f8cb c9bd
00000360: 4fcf 893e a453 cd3d 3666 813e 0cef 383d
00000370: 2637 cb3e 0348 653e 0e7f 83bd d3f4 54be
00000380: c71b aabd c705 b03d 1394 463d b023 89bd
00000390: 95dc ec3d 369a 6c3e 9994 42be 35c2 6a3e
000003a0: b959 e73d e077 a1bd d933 debd 8dae cfbd
000003b0: 3937 4f3d 71ff b53d 6a31 9d3e 8cf1 29be
000003c0: 4d02 5d3e 0778 c53d b00f 923e a01d b3bd
000003d0: 24ad e4bd e92f b53e 0125 fcbd 6a52 763e
000003e0: 1f78 fdbd dd25 e9bd 726d d13d da11 12be
000003f0: a709 df3d 29d3 a83e aeb1 c5bd f1eb 27be
-0.10682377 -0.10624094 -0.13461943 0.047346845 -0.106224306 -0.12464156 0.08035394 -0.052383043
-0.19324449 -0.069094874 -0.12732005 0.10103201 -0.22483845 0.030548958 0.063474536 0.12357913
-0.08382775 0.36482686 -0.046257865 0.22288564 -0.06609452 0.13381372 -0.1146147 0.09960971
0.11351228 0.057587545 -0.07799463 -0.06690356 0.08407103 0.14183867 -0.070805155 0.049391434
0.07144562 0.10751645 -0.06330055 0.042464938 -0.1890067 0.05872901 -0.17186126 -0.12660961
-0.09632288 0.025008187 -0.08404142 0.05585214 -0.15845402 -0.16003484 -0.085517965 0.048455674
-0.09119683 -0.07721092 0.35378522 0.320968 0.028399577 0.10923896 0.1835381 0.067581594
-0.1094171 0.02794678 -0.06638242 0.061002478 0.25817272 -0.25887725 0.2138607 0.20619014
0.030737542 0.069610156 -0.07412103 0.045498632 0.029872386 -0.09522603 0.08635037 -0.08010817
0.23818249 0.040121693 0.2508456 0.11766864 -0.0765033 0.27497867 -0.14274529 0.03367939
0.046464562 0.3567085 -0.24162903 0.050833195 -0.12435204 0.06329927 -0.1435078 -0.22003497
0.02970408 -0.1571535 -0.11752675 0.088913515 -0.06882942 0.12094837 0.24799688 0.20320465
0.11220953 0.24066283 -0.067145735 0.35562703 -0.13828479 -0.11124341 0.3926171 -0.053970672
0.09210361 -0.036778748 -0.06356201 0.22179599 0.20046781 0.10524905 -0.053500324 0.20237473
-0.10950884 -0.112674445 -0.08482108 0.07545969 -0.09707232 0.11642262 0.4588929 0.042519122
0.20519951 0.16284755 0.12956959 -0.10851429 0.19033661 0.120725535 -0.09815937 0.34698674
0.10153856 0.40996048 -0.10746466 -0.086162366 -0.1681421 -0.07364697 -0.10685661 -0.09666572
-0.060721014 -0.00055732473 0.059798278 0.2971771 0.06976187 -0.08595573 0.13477038 -0.14620446
0.07219448 0.05014157 0.25118005 -0.12635103 0.053230934 -0.10007063 -0.1030665 0.0630603
-0.04519992 -0.35572854 0.1871953 -0.0702895 0.3352744 -0.05652084 0.07587619 0.35109648
0.038835596 -0.15192129 0.040337086 0.19086583 -0.097225845 -0.055875387 0.31849927 0.093311906
0.10207304 -0.0881404 -0.09470368 0.27242526 -0.16560157 0.18274643 0.1388287 0.12733486
0.0662836 0.030956175 0.10108845 -0.078155436 -0.080280244 -0.1071406 0.4255866 -0.21779603
-0.082758285 0.1474598 0.3127031 -0.10510309 -0.16896859 -0.12036139 -0.20333017 -0.06674611
0.08988026 -0.07995021 0.29640365 0.04971043 -0.16705237 0.048565347 -0.14459465 0.1162785
-0.10144518 -0.07219129 -0.062474832 0.14343452 -0.1135616 0.04612424 0.0979463 0.4038244
0.075392656 0.07167159 -0.1571325 0.044006854 0.06748372 -0.08797344 -0.09506698 -0.09853357
0.26915976 0.10025719 0.25273293 0.045149848 0.39690512 0.22390752 -0.06420718 -0.20796518
-0.08306079 0.08594852 0.04848106 -0.0669626 0.1156551 0.23105702 -0.19001998 0.22925647
0.1129641 -0.078841925 -0.10849733 -0.10140715 0.050589774 0.08886612 0.30701762 -0.16596049
0.21582909 0.09642034 0.28527594 -0.08745885 -0.111658365 0.35388115 -0.123117454 0.24054876
-0.12376427 -0.11384175 0.10225953 -0.14264622 0.10890513 0.32973602 -0.0965303 -0.16398598
