checkpoint.actor.pth (torch_old, 541353 bytes, 6 tensors)

fc1.weight f4 [400, 33]
00000000: 86c5 bd3c 7fdc e63d f177 82bd 44da 90bd
00000010: 06f8 86bd 39fe 733e 1e55 86bb f2e3 a53d
00000020: 8ca4 103c 7313 aabd 2556 d8bd 940a 7a3d
00000030: d81e 81bd 717e 403d 7bd3 8f3c 9cff c9bd
00000040: 520c 45be bcf8 713d 2370 94be 4976 14be
00000050: c393 dbbb 915d 10bd 8725 4cba 4271 3d3d
00000060: 3d61 fc3d 8baa d5bd 0287 493d af25 5bbd
00000070: 72da 36bc c965 4b3d 071e 4c3d b74f eabc
00000080: 7b47 db3e 9dc0 bdbd ce12 c7bd daa4 123e
00000090: c51d 11bd c13c 7b3d 90fb d63c f4c0 c4bd
000000a0: 6da6 163e 453a 23bd cdad 7bbc 8fd9 eebd
000000b0: 8641 d53d d35f 83bd 2782 b13d f555 36bd
000000c0: 4c0c 53bd 2a8f 043e ddb1 7c3d 5efd 03be
000000d0: f11e 953c 54c5 bc3c eb90 22bd 945c 733c
000000e0: 52f6 ed3b 6eaf fb3c 3370 dcbd 0491 273c
000000f0: 5913 f53d a27d babd c3af 28bd a912 a1bd
00000100: ec03 3bbc c377 943d f905 fbbd 11bb f63d
00000110: 1670 d53d 4b91 95bd 0694 eebd 62c7 20bc
00000120: b14d 353e f4f5 e13d ee7b 723c 2823 f03a
00000130: b5d0 b1bc 54f4 b53c 3737 b9bc aafb 3e3a
00000140: cbcb 843d 26de 283d bf2f b83e d31a cd3d
00000150: a18d 26bd 2715 083e 0389 853d b960 56bd
00000160: 46d2 343c 4a71 d7bc af2d 9f3d 8b37 113e
00000170: ccee 843c 04da cf3c 2330 053e ecd4 0bbd
00000180: d9e4 b1bd 2bb2 3c3d 2d77 c3be 5016 0f3c
00000190: 785e 743c 1369 95bd 8187 b13d 9d42 183d
000001a0: 130b 31be 8738 2c3e 3b93 493d 2c9c 94bd
000001b0: 1e18 6fbc 7f40 10bd fefc 6f3d e605 dabd
000001c0: b1a4 06bd a443 9a3d 4de0 60bd 2248 87bd
000001d0: 4257 853e 9f75 593e 22e0 b23d 0bc1 1bbe
000001e0: 1f3b 9abd 5f11 b73d c2f4 803d a853 b7bd
000001f0: 8fdb 213d 9746 c1bc f71a edb9 8bb3 7ebd
00000200: 0058 54b8 af3e 1dbd 8003 08ba 008d 22be
00000210: aab2 a1bc 4e6f 2a3d fce1 6e3d a06b 7f3e
00000220: 557c 5a3e 9911 d6bc 6c66 3d3e c36d 933d
00000230: f11e 553c d7a4 b53d 3d58 5f3e 0ab4 9ebd
00000240: 876d 5f3e 30ed 07bb 8746 5dbd 6fb6 7b3d
00000250: ec09 5d3d 122f 17be e157 403d 232b 713c
00000260: 575a 523d 57fe 543d 191a c6bd 4843 1d3e
00000270: 9146 84bd 4dee aabd faf7 b43d 9015 9f3c
00000280: 6abf 7dbd e080 1bbd 03be 37bd 68c4 19bc
00000290: e91a 37be 549f 513d dacc 11be 47ad 1bbd
000002a0: f1e1 71bc ee8a fb3d d04b 243e 249d 483d
000002b0: 00c4 65bd 1b92 da3d 3950 e83d 9d7e d03b
000002c0: d8ba b6bd f620 37bd 3045 233d bb2b c5bd
000002d0: 994b 5abd fb4c 67be 65b2 adbd 6ad7 f23c
000002e0: 6cf2 cdbd 248b 3dbd f1ae e63c 8569 923d
000002f0: 4bee dcbc 7486 ca3c 5c0d f43c 7456 793c
00000300: 9fdb ccbb 79f4 54bd 8927 403d 70f1 543d
00000310: c03e 713a 90d6 f6be b2e1 03bb 73b3 f93c
00000320: 7497 c33d d7a1 653e fba7 453b 4902 8c3d
00000330: 73a3 17bd a994 2c3d 4ae2 0c3e 61e1 86bd
00000340: f195 dabc 70ca e7ba 92f8 003e 61e0 a43d
00000350: fdc6 493d 295f 913d 7571 393d e1ee 6a3d
00000360: fc82 ec3c 7ea9 543c 7251 99bc 7ead 27bd
00000370: ac8c 9cbd 9116 c33d 949c 1cbe 881a b03d
00000380: 01d5 dfbd e94f 493c 9dc4 c83c 7f70 2fbd
00000390: bddf 07bd ace8 2c3c b427 943c 99c5 5fbc
000003a0: a501 cdbd 79e9 80bd e590 e9bc 2d41 febd
000003b0: 0206 a13d 0bd4 a3bd 0271 b3bc bf07 813d
000003c0: a6c5 063d 771e 9b3d ea69 213d f518 213c
000003d0: 7c7f 4b3d 0687 c5bd d08c 3f3d 8a72 f9bd
000003e0: 9071 5b3e 290e 0fbd 15a5 293d 8af4 66bc
000003f0: 72d8 903d 12bd 563d 5466 0dbd dfa9 66bd
0.023165476 0.11272525 -0.06370533 -0.07072881 -0.065902755 0.23827447 -0.004099502 0.08100118
0.0088282935 -0.08304491 -0.10563306 0.061045244 -0.06304711 0.046995584 0.017556896 -0.09863207
-0.19242981 0.059075102 -0.28991804 -0.14498247 -0.006700964 -0.035245482 -0.00077875744 0.04625059
0.12323234 -0.10432919 0.04920102 -0.053502735 -0.01116048 0.049657617 0.049833324 -0.028602464
0.42827973 -0.09265254 -0.097203836 0.14320698 -0.03542878 0.061337236 0.026243001 -0.096071154
0.14711924 -0.039850492 -0.015361262 -0.1166259 0.10412888 -0.064147614 0.08667403 -0.04451557
-0.0515254 0.12945238 0.06169306 -0.1288962 0.01820323 0.023043312 -0.039688986 0.014853615
0.0072620297 0.0307233 -0.10763588 0.0102274455 0.11966581 -0.09105994 -0.041183244 -0.07864887
-0.011414509 0.07249405 -0.122569986 0.12047399 0.10421769 -0.07303103 -0.11649327 -0.009813162
0.17705418 0.1103324 0.014800055 0.0018321024 -0.021705965 0.022211231 -0.022609336 0.00072854257
0.06484183 0.041227482 0.35973927 0.10014882 -0.04066241 0.13289319 0.065202735 -0.052338336
0.011036461 -0.026299138 0.07772385 0.14181344 0.016227148 0.025372513 0.13006644 -0.034138605
-0.08686227 0.04606835 -0.3817686 0.008733347 0.014915101 -0.07295432 0.086684234 0.037172902
-0.1728938 0.16818438 0.049212676 -0.0725635 -0.014593152 -0.03521776 0.05859088 -0.10645656
-0.032871906 0.07532433 -0.05490141 -0.06605555 0.26043135 0.21236275 0.08734156 -0.15210359
-0.07530808 0.0893886 0.06296684 -0.08951503 0.039516028 -0.02359323 -0.00045224253 -0.062182944
-5.0626695e-05 -0.038389858 -0.000518851 -0.158741 -0.019738514 0.041610055 0.058320984 0.249434
0.21336491 -0.026131438 0.18496102 0.0719867 0.013007865 0.08869331 0.21811004 -0.077491835
0.21819125 -0.002074074 -0.05402234 0.06145328 0.05396454 -0.1476405 0.046958808 0.014719757
0.051355686 0.05200037 -0.096729465 0.15357697 -0.06458772 -0.083462335 0.0883636 0.019419461
-0.061950125 -0.0379647 -0.044858944 -0.009385206 -0.17881359 0.051177338 -0.14238301 -0.038007047
-0.014763341 0.12282358 0.16044545 0.048977986 -0.056095123 0.10672399 0.11343426 0.0063627497
-0.08922356 -0.04470917 0.039860904 -0.096274815 -0.05329475 -0.2258796 -0.08481292 0.029643733
-0.10056004 -0.046275273 0.02815959 0.071490325 -0.026969096 0.024722315 0.029791526 0.015218366
-0.006251767 -0.05199096 0.046912704 0.051988065 0.0009202771 -0.48210573 -0.0020123539 0.030481076
0.09550372 0.22425018 0.0030159939 0.06836373 -0.03702111 0.04213396 0.13758197 -0.06585956
-0.026682826 -0.0017684232 0.12594822 0.080506094 0.049262036 0.070982285 0.045274217 0.05735672
0.028871052 0.012979863 -0.018715594 -0.04093694 -0.076440185 0.095257886 -0.15294105 0.085988104
-0.10929299 0.0122871185 0.024507815 -0.042831894 -0.033172358 0.01055352 0.018085338 -0.013657951
-0.10010079 -0.062945314 -0.028511474 -0.12414775 0.07862474 -0.07999428 -0.021904472 0.063003056
0.032903336 0.0757417 0.03940765 0.00983261 0.049682125 -0.09644894 0.04676515 -0.1218005
0.2143004 -0.034925614 0.0414172 -0.014096389 0.07072534 0.052426405 -0.034521416 -0.056314345

fc1.bias f4 [400]
00000000: e453 3abd 2756 2ebe 93d8 e03d 1bed 873b
00000010: 93ce 1dbe 2e3d 02be 9e4b 0dbe 35a3 3fbd
00000020: b37e 63bc 5bb7 7fbe def7 a83d 655d 84bb
00000030: 7334 0b3e 94dc 073c 3b20 fabd b3fd a5bd
00000040: dca3 aabd 5b19 15be daee eebd ac37 3b3c
00000050: f283 56be 82a2 8fbd c322 70bd 3a45 93bd
00000060: 696e c3ba 0ce2 6abe feb3 9fbd 6a37 1d3e
00000070: bd4a 813d 50dc 623d 4277 e5bc 7e05 343e
00000080: ef18 083e 611a 99bd 39c3 0a3d bd0d 2abe
00000090: 2cf1 9cbd b1e6 073e b59e 053e 4bee 033d
000000a0: 7c39 e23d 3bd3 abbb 83c6 203e d79e 1f3e
000000b0: 709f 003e 9cd5 bc3d 01a5 ef3c 7aa4 913e
000000c0: eb11 303d 699f 41be a0b7 8f3c a638 473e
000000d0: 091c e03d 7690 1f3d 1831 96bc abb0 603e
000000e0: 30f5 073d 4fff 9ebd cc2f cabc ce5f fe3d
000000f0: ffea 68be 275a e3bd bb58 713e eabc 8abc
00000100: 4ddc 98bd 4aad 84ba 8aa6 033e 473d acbd
00000110: 5a48 403d 0a45 d83d 9139 a7bd 8300 4dbd
00000120: d6c4 f5bc 925d 353d d9ed f53d 417a 073e
00000130: 659d 34be 0ef7 ec3c d79a 363e fc97 1bbc
00000140: b6b5 18be 9a6c 273d ca0c 4ebd 23c9 d13c
00000150: 1f55 46bc 4899 79bc ec1c 913c 3273 1f3e
00000160: f7c2 cf3d 63cc cabd b0da 2dbe b06f f53b
00000170: 4eab 9cbc e5b3 773d 295c 92bd 9b5a 13be
00000180: 0287 29bd 34d5 fa3d e4df 43bc 7b9a 793e
00000190: 4fde d73c 888e 0f3e 654f 90bd 137a 0e3e
000001a0: e476 07bd a9f5 d53d 28bc 973d 8ef6 d93c
000001b0: 7bd0 293c 5e75 4abd 6501 1f3d 9b29 2bbd
000001c0: 2670 90bc fc27 7bbe 723a b93c 05c2 bf3d
000001d0: 29fb 2d3d f8c6 2fbd 6b1a c4bd b2ce a7be
000001e0: ddac edbd cbd9 9fbd 7341 71bd 339a b43d
000001f0: e15e 12be 6f6c 0d3e 7e80 a03d 5862 343c
00000200: e130 d43d 6119 043e 8370 9dbd e9df db3d
00000210: 2679 623d d128 5b3e 1138 92bd 7203 353e
00000220: 6d8a 8f3a ca58 273e f0d4 403e 6fc8 a03b
00000230: d6a4 973d fd25 34bd 4274 35be c261 c13d
00000240: 8259 00be ca67 723d a930 c5bd 1685 c4bc
00000250: ac5c a9bd f279 8abd 7e4f 0dbe d230 bb3d
00000260: 8a8e 8d3d 7cc8 36be 71cb a0bc 4cc8 ffbd
00000270: 32ea ec3d 99fa 1cbe 5bc3 c0bd 6e6d e4bd
00000280: aead 6dbe 0499 823d ddb4 153e 45fd 823d
00000290: 3278 9b3d 0e63 3bbd 5f28 eb3d fe68 383e
000002a0: 68fe bcbb e924 6bbc b081 253d 62f9 5cbe
000002b0: 16df 1dbd bff8 2abd cebc d6bd 0ddd 1d3e
000002c0: 91c2 cfbd e255 6abc b936 f23c b884 1d3d
000002d0: f31e 1e3e 9baf 9f3d fa03 8dbe f7a5 e9bd
000002e0: ac56 37bd 366a c3bd f9c0 7cbe 596e 09be
000002f0: 85de 523e 3481 083e 9681 ed3d ccd4 88bc
00000300: 9af5 f8bd 1cb8 583e 99e7 323e 1237 6d3d
00000310: f188 4fbd 68ce cabd 3e10 993d 04c5 5ebd
00000320: a4c7 8abd 6dd8 f5bd 5648 5abe b776 00be
00000330: c3e9 43be 4db5 d83d 0f8f ff3c b842 953d
00000340: 29f6 b43d 1d52 283e 31fe 213d d7bf db3d
00000350: baac 133d 3d18 0cbe fda9 173e decd 05be
00000360: 40aa b5bd a07f bbbd e4bc 463d 783f 323e
00000370: 661c 23be 8b7e 88be 801a bebd 1cde 29be
00000380: cccf 1f3e 1290 0d3d 3d55 293e 6dbd a23d
00000390: 1b4c 573d f4b3 8ebd 3d35 c73d bdb2 6c3d
000003a0: 764d 0c3e ef5b 1cbe f43a 4abd 2b54 143e
000003b0: 421c 8cbd 2b04 debd 1928 76be 4e7f 193c
000003c0: 5270 a23d 4ce5 cabc 4c41 233e 98bc 5d3c
000003d0: d9d6 2abe 1810 9dbc e20c 473e 2f92 143e
000003e0: c93a b8bd 701b 0bbe 405f 2e3d 834f 003e
000003f0: 14cd a8bd 1be3 1fbe 61c7 313e 971e da3d
-0.04549016 -0.17025052 0.10978808 0.004148138 -0.15410833 -0.1271865 -0.13798377 -0.046786506
-0.013885188 -0.24972288 0.08250402 -0.004039454 0.13594227 0.008292336 -0.12213179 -0.0810503
-0.08332035 -0.14560454 -0.11666651 0.011426847 -0.2094877 -0.07013418 -0.0586269 -0.07190938
-0.0014910224 -0.22937793 -0.07798003 0.1535317 0.06313083 0.055385888 -0.028010968 0.1758022
0.13290761 -0.074757345 0.033877585 -0.16606803 -0.076631874 0.13271596 0.13048823 0.032209676
0.110461205 -0.0052436865 0.15700726 0.15587936 0.1256082 0.0922043 0.029253485 0.28445798
0.042985838 -0.18908466 0.017543614 0.19455203 0.10942847 0.038956128 -0.018333957 0.21942393
0.033192813 -0.0776354 -0.024680994 0.12420617 -0.22745894 -0.111011796 0.23569004 -0.016935784
-0.07463894 -0.0010122445 0.12856498 -0.08410125 0.046944 0.10560043 -0.08165277 -0.050049316
-0.030001085 0.04427869 0.120082565 0.1323023 -0.17638166 0.028926399 0.17832504 -0.009496685
-0.14913067 0.040875055 -0.050305165 0.025608605 -0.012105255 -0.015234299 0.017713986 0.15571287
0.101446085 -0.09902265 -0.16977954 0.007490121 -0.019124653 0.060474295 -0.071464844 -0.14390032
-0.04138852 0.122476965 -0.011955235 0.24375336 0.026351122 0.14019215 -0.07046393 0.13913755
-0.033072367 0.104472466 0.07408935 0.026606824 0.010364647 -0.049428336 0.03881969 -0.041787725
-0.017631602 -0.24526972 0.022610877 0.09363178 0.042475853 -0.04291436 -0.09575351 -0.32774884
-0.11605237 -0.078052126 -0.058900308 0.08818474 -0.14294006 0.13810895 0.07837008 0.011009775
0.103608854 0.12900306 -0.076874755 0.10736067 0.055291317 0.21402289 -0.071396 0.17677096
0.0010951288 0.16342464 0.18831229 0.004906706 0.07404487 -0.04398154 -0.1772013 0.09442474
-0.12534145 0.059181012 -0.09628422 -0.023989242 -0.08269629 -0.067615405 -0.13799855 0.09140171
0.06911953 -0.17849916 -0.019628258 -0.124893755 0.11568107 -0.1532997 -0.09412261 -0.111536846
-0.23210785 0.06376842 0.14619775 0.063959636 0.07591285 -0.045748763 0.114823096 0.18008801
-0.0057676323 -0.014352062 0.040406883 -0.21579507 -0.03854283 -0.04174113 -0.104852304 0.15416355
-0.101445325 -0.014302703 0.02956711 0.03845665 0.15441494 0.07797166 -0.27542096 -0.114086084
-0.04476039 -0.095417425 -0.24682988 -0.13421 0.20592697 0.13330537 0.11596982 -0.016703032
-0.1215622 0.21163982 0.1747116 0.057913847 -0.050667707 -0.0990265 0.07473801 -0.054387107
-0.0677636 -0.120041706 -0.21316656 -0.12545286 -0.19132142 0.105814554 0.031196145 0.07288116
0.08836014 0.16437574 0.039549056 0.1072995 0.036053397 -0.13681121 0.14810939 -0.13066813
-0.08870363 -0.09155202 0.048519984 0.17407024 -0.15928802 -0.26659045 -0.09282398 -0.16588634
0.15606612 0.034561224 0.16536422 0.07946286 0.052562814 -0.06967917 0.09726951 0.057787646
0.13701424 -0.15269445 -0.04937263 0.14485233 -0.06841327 -0.10840639 -0.24038734 0.009368731
0.0793158 -0.02476754 0.15942878 0.013533734 -0.1668352 -0.019172713 0.19438508 0.1450889
-0.089955874 -0.13584685 0.042571306 0.12530331 -0.082422405 -0.15613978 0.17361213 0.10650366

fc2.weight f4 [300, 400]
00000000: 8ade e63c ad08 b63d b093 203d 0b12 efbd
00000010: 9ba8 f63c e586 8d3c a607 8b3d a34f 5abd
00000020: 9307 063d ca1d 4d3d 68da 363c 01e0 04bd
00000030: 43bc 503d 1cc9 d83d 817a a13c 0916 1bb9
00000040: 95b8 1a3e 6282 a4bd f27f e83d a26f bfbc
00000050: e418 cd3d 4d08 de3d 7b98 343d 9975 c5bd
00000060: 80f4 4a3d e67b dcbd 4b72 87bc ddc5 7abc
00000070: 25a7 1bbd 373c d6bd f135 e43d 19bb 013d
00000080: a77a c9bb b038 bfbc 8a32 f1bb d3d1 783d
00000090: 93bd cebc 2ffd 7c3d d13c 433b 1c37 113d
000000a0: 7a3c 993c 4fcb c83d 84d2 c53c 9dec f73d
000000b0: 0ec8 c83d 635f 9a3d 2457 abbc a414 22bc
000000c0: 8b3a 1f3d 5e7e 6b3d 3b29 d63d c4be a93c
000000d0: fa75 10bd f6f5 e1bd 4c89 98bc 52d8 b53d
000000e0: 0d54 fb3c 4636 613c c321 9c3c 0138 a3ba
000000f0: 4a1d 8abd ecab 79bd 6205 6bbd f06e 363d
00000100: 6738 1ebe 332e b53d bba3 1e3d ca9c 8abd
00000110: 7190 8abb 0c02 533d ae30 813b fd85 463e
00000120: b66f 253e 6870 ca3d 2a10 42bd b9c3 1cbd
00000130: 1fcd 183d f261 56bd 7882 963d a457 11bd
00000140: 8d18 7cbd 7e40 3b3c 099e 6bbb febc 813b
00000150: 8184 88bc 4321 aebb a6dc f73c f1b7 e23c
00000160: 5af8 a03c 9451 dfbd 7505 813d f591 3f3c
00000170: 222a 393d e524 52bd 0ece 493d 7dbe 96bd
00000180: 99bb b03c 8ef7 05bd 4daa 14bd 3a65 233d
00000190: 8db4 54bd 67bd a53c 2752 8c3c 850e 17bd
000001a0: fe16 0d3d c2ea 8ebd 56ff 713d 0bc4 0e3e
000001b0: f5bc 053e d9a8 06bd cc75 a6bc ec75 bc3c
000001c0: 7f7a e4bc d65f eebc 2cd8 26bd 9d6b 50bd
000001d0: 4115 113d 6284 c23d d974 cfbb 2a62 103d
000001e0: 0bfe 77bd 2797 15bd 7a7d c93c 146c d03c
000001f0: b1ff 0b3d 5b90 a93c 807c 983c 3405 cb3d
00000200: 0761 aebc f483 503d 9597 5bbc c579 2d3d
00000210: bf15 933d 1a64 09bd a993 703d b8ff 94bc
00000220: ab1d 233e be6e 0fbb bef1 c53c d0cf 253c
00000230: 4f28 8c3d fdd4 053e c73f 89bd 749d 3cbd
00000240: fc6c 8dbb 971f 1cbe fe9d 843d b35b 1b3d
00000250: 2701 933d 7832 21bd 71d7 9d3d c2cf adbb
00000260: 23f3 b83b 47e5 c43d 2f58 c8bc f815 943d
00000270: 833e 3c3c 89e7 b83b f41e b23d 378c b23b
00000280: ddb0 e33d be80 6f3c d841 ae3c b465 6cbd
00000290: f8cf 44bb 55f4 0c3e 8134 9aba 25a2 8fbc
000002a0: e85c 123d 524f 0e3d 4e0b 69bd 9775 f13d
000002b0: 46a4 e33d 858d 743d 28ca 8f3b 84ba 8abc
000002c0: 2a88 9fbd 828a 0a3e 5da0 ed3b 9cd0 fa3c
000002d0: e641 79b9 4c00 a43c 0cd1 7cbc f7cc 99bc
000002e0: aa17 fbbc 5bc7 b53d 84ee 85bd 0341 a1bd
000002f0: 4228 a33c ab3e 8c3b c405 883d 3544 bf3d
00000300: 460f 613d 8a02 d43d d8e1 29bd cc6e 0abe
00000310: 9e0c f73b 0e69 003e 1d13 e23d 7bcb acbc
00000320: a44c 8c3c 7994 9e3d 7dba 11bc 921d a4bd
00000330: 2722 ef3a d3bf 61bb a434 403c bdae ba3d
00000340: 7274 6f3d e6d4 09bd 0374 66bd 099d 86bd
00000350: 2856 d6bd 5674 323d 2924 84bd 3a9d cc3b
00000360: 18e3 8b3d 54fd 6b3d a4c7 263d 4053 5c3d
00000370: a1bd c1bd dc0b 173b 5382 88bc 52f7 603c
00000380: 01f6 8a3d 1e73 663d e805 283c 04b6 363d
00000390: a5ec 863d fe3b 053d d413 40bd 9b50 79bd
000003a0: b6b0 4a3d ee64 e0bc 0df9 3cbd e46c ffba
000003b0: 1323 6dbd 3ace bbbd b016 8b3d 4a59 a63d
000003c0: 8f7b 56bd 39a3 91ba 9d8c 3c3d ba38 68bd
000003d0: 1bb2 ffbc 1b02 3abd 2f75 093d 9569 5b3d
000003e0: a14d da3d 17b3 bb3d e91c 7f3d 4966 b93d
000003f0: e54b e63d e4df 5fb8 89b9 313d 3a10 86bd
0.028182287 0.088883735 0.039203346 -0.11673363 0.030109694 0.017276237 0.06788568 -0.053298604
0.032722067 0.050077237 0.011160471 -0.03244019 0.05096079 0.105852336 0.019711735 -0.0001479016
0.15109475 -0.08032681 0.11352529 -0.02336866 0.10014513 0.10841427 0.04409073 -0.096415706
0.04954958 -0.10765819 -0.016533991 -0.015305963 -0.0380012 -0.10460704 0.11143101 0.03167257
-0.0061486545 -0.02334246 -0.007360761 0.06074698 -0.02523688 0.061764892 0.0029790888 0.035452947
0.018705595 0.09804403 0.024148233 0.12105677 0.098037824 0.07537725 -0.020915575 -0.009892616
0.03887419 0.05749356 0.10457083 0.020720847 -0.03526876 -0.110332415 -0.018620156 0.088791505
0.030679727 0.01374585 0.019059068 -0.0012452604 -0.06743868 -0.060954973 -0.05737818 0.044539392
-0.15451203 0.088467024 0.038730364 -0.067681864 -0.0042286445 0.051515624 0.0039425706 0.1938705
0.16155896 0.09884721 -0.047378697 -0.038272593 0.037304994 -0.0523395 0.07349104 -0.03548397
-0.06154685 0.01142895 -0.003595235 0.003959297 -0.016664745 -0.0053140237 0.03025658 0.0276756
0.019649673 -0.10904232 0.06299869 0.011692514 0.045206197 -0.051304717 0.049268775 -0.073605515
0.021573829 -0.03270679 -0.036295224 0.03989146 -0.05193 0.020231916 0.017129017 -0.03687908
0.034445755 -0.0697837 0.059081398 0.13941972 0.13060363 -0.03287587 -0.020319842 0.023005448
-0.027890442 -0.029098433 -0.0407335 -0.050883878 0.03542066 0.09497906 -0.006331068 0.035249867
-0.06054501 -0.036521103 0.024595965 0.02544216 0.034179393 0.020698717 0.018614054 0.09913102
-0.0212865 0.05090709 -0.013402839 0.042352457 0.07181882 -0.03354273 0.05873457 -0.018188342
0.15929286 -0.0021886076 0.024163123 0.010120347 0.06843626 0.1306953 -0.06701618 -0.046048597
-0.0043159705 -0.15246426 0.06475447 0.037929248 0.07177954 -0.03935477 0.07707108 -0.0053043077
0.0056442185 0.09614044 -0.024456112 0.07230753 0.011489513 0.0056428355 0.0869731 0.005448844
0.11117718 0.014618097 0.021271631 -0.05771418 -0.0030031186 0.1376508 -0.0011764915 -0.017533371
0.035733134 0.034743614 -0.056895547 0.117900066 0.11115317 0.059705276 0.0043881126 -0.01693464
-0.07789643 0.13529399 0.007251783 0.03061705 -0.0002377104 0.020019673 -0.0154307 -0.018774493
-0.030650932 0.08875915 -0.06539634 -0.07873728 0.019916657 0.0042799315 0.06641725 0.09339181
0.054946207 0.10352047 -0.041475147 -0.13518828 0.007539346 0.12540075 0.11038802 -0.02109312
0.017126389 0.07743163 -0.00889456 -0.080134526 0.0018244431 -0.0034446612 0.0117313005 0.0911536
0.05846066 -0.0336503 -0.05626298 -0.06572921 -0.10465652 0.043567978 -0.064522095 0.006244329
0.06830424 0.05761464 0.040717736 0.05379033 -0.09459997 0.002304784 -0.016663706 0.013730841
0.06785203 0.056262128 0.010255314 0.044607177 0.06588105 0.032527916 -0.04689391 -0.060867887
0.04948493 -0.027391877 -0.04613595 -0.0019487408 -0.057894778 -0.09170194 0.06791437 0.08122499
-0.05236393 -0.0011111266 0.046032537 -0.056694724 -0.031212857 -0.045412164 0.03355902 0.053567488
0.10659338 0.09165018 0.06228343 0.090527125 0.112449445 -5.3375858e-05 0.04338983 -0.06546064

fc2.bias f4 [300]
00000000: 550e 843d 5a61 3c3c 4b2f 79bb a308 563d
00000010: 6089 003b 9bbd 903b bd0a 97bd cbb8 e83d
00000020: d016 7b3d a970 8d3c 96e5 593c 591d 0abd
00000030: c30b 31bd f3ea b03d 1a5d 723c 1319 3fbd
00000040: 1a81 b7bc 80db 3a3d 5465 bc3c 2094 94bc
00000050: bfe8 2c3d 1070 d23c 8401 bdbc dfe7 c53b
00000060: b93b ea3c e56b 3ebd 50cd 433d 27f6 9e3c
00000070: d634 d03d 2099 8b3d 6bff 80bc aa72 07ba
00000080: fb90 1e3d 20ad 6d3d 4c71 16bd cfc3 003c
00000090: ad9e 8a3c fc75 50bd 9ccf 2fbb b40f a83d
000000a0: 005e 6f3c c6b9 62bd 577b f8bc 3893 15bd
000000b0: 5450 7d3c 9385 463b ccc3 28bd c327 92bd
000000c0: a4b9 0b3c 403e 1ebd ea91 023c 53ad 623b
000000d0: c243 c7bc 22da 4ebc 8e45 87bc f1f8 88bd
000000e0: 47f0 cbbd e97b 85bd 2474 8cbd 2910 3fbd
000000f0: d1fc 973d f932 4a3d a790 86bd 84ba 3fbc
00000100: afff e13d eb8b 173d 5461 a63a 263c a6bc
00000110: 2433 723b a750 b4bc 42e9 053d 0706 b2bb
00000120: 6e88 163d 4f16 0ebd c94e 5c3d 9744 aabc
00000130: de91 d5bc ab81 f93c 5f3a 3bbd 98cc 0dbd
00000140: 1e96 d9bc 8d61 16bd c6e1 dc3c 0a07 033d
00000150: a07f f43b 1aef 20bc 0c00 8d3c ade1 3ebd
00000160: 4a90 7a3c cc31 133d 690e d7bc 8a61 333c
00000170: 4aab 813c 3c0d 023d 2bdd 603d 8ca4 b23c
00000180: 0e26 9abc 94d3 6cbd 6c76 23bc 0530 303d
00000190: 5b42 6bbc 1393 333d 012c 38bd 88a4 bdbc
000001a0: c5d0 18bc c387 5ebd a4ea 8bbc 4eb2 3ebc
000001b0: 33b9 a83c f119 663d ef0b 103d 65aa c8bb
000001c0: db2e fa3d 4fb5 aa3c fef4 0bbd e2b3 2c3d
000001d0: a3c9 3e3d b421 bf3c 8db8 143d 42c6 463d
000001e0: dfed 9dbc 3a6a 54bd ae2d 513c ef08 543d
000001f0: 02c9 203d 1e00 94bc 0c6a bb3b 09b5 25bc
00000200: 43e2 edbc ba15 993c 0d1d d93a 9d2a 14bd
00000210: ae55 04bd b442 e4bd a187 e43c 93cf 30bb
00000220: ed91 523c 2da7 1d3d 5472 393d b155 f43b
00000230: 1937 6dbd a187 b5bc 427b 30bd cca6 c93b
00000240: b7be cd3c 9748 cb3c 7388 0abd e95d 10bc
00000250: 77ba 6cbb 612a dd3c 7647 72bd 73fd 0cbb
00000260: 072e e0bc 0ea6 6cbb c9a3 53bc 4b57 12bd
00000270: 7ce8 d5bb 96e0 c53d 1187 98bd 8fc1 4a3d
00000280: 1ad4 64bd 9cb1 333d b80d 21bd b435 dbbc
00000290: b473 52bd bdc7 08bd d682 4a3a b9ff 863c
000002a0: b882 283c 9dd4 1a3d a644 053d e4e7 7bbd
000002b0: 67d8 a9bb 0576 5dbc d217 d33c d825 d1bc
000002c0: 3d96 babc 031a a7bc 1935 3bbc 0b24 11bc
000002d0: 43e2 f83c 9ce2 ad3c d3c9 2d3d 5b42 03bd
000002e0: e63c 713d 2df4 943a b96b 143d 07eb a83c
000002f0: 506e 033d 7978 9d3d 3889 ecbc 1143 993d
00000300: 9ae0 3ebd 4d30 b0bc e117 993d 794c 1dbc
00000310: 1531 f1bb ab5a 28bd c8f8 1fbd a240 453d
00000320: bcbf 8e3c a605 38bc 791a a3bc 37d1 463d
00000330: 88e0 8d3c 4cb8 0e3d e3c0 3f3d 0803 d33b
00000340: c9e6 b1bc db0c dfbc 15e2 023d 4d54 913c
00000350: 2c80 48bd 61a1 a83d fc22 b8b9 4531 343d
00000360: a40e 6a3a e2ff 3939 be78 9e3c 4d46 323d
00000370: 04a0 27bd fd23 f7bb e1bf 453c b453 7abd
00000380: 463b 3b3d a460 c53c 9ebc bebc 1012 8c3a
00000390: 8747 ecbc a6b6 683c cc4a 8f3d 0f91 e7bc
000003a0: 26fa 4e3c 0839 ee3c 6f53 2c3d 25b7 dcbb
000003b0: 10e5 c9bd 7746 763b 3962 21bd bb4b 26bd
000003c0: f824 823d e96f 533d 8102 83bc c3a4 98bd
000003d0: 3952 a73d 7658 bc3c d9d2 6f3c 0a54 3a3d
000003e0: 1647 2e3d 3b07 8bbd 852a 0ebd 9395 513c
000003f0: fc59 a8bc 8ebd 2b3d 781b d33c fc4b c9bc
0.06448046 0.01149782 -0.0038022574 0.05225433 0.0019613132 0.004417134 -0.07375095 0.113633715
0.061301053 0.017265635 0.013299366 -0.033719394 -0.043224107 0.08638563 0.014792705 -0.046654772
-0.022400428 0.045619488 0.022997536 -0.018137038 0.04221415 0.025688201 -0.023072012 0.006039604
0.028592931 -0.046489615 0.047803223 0.019404484 0.10166328 0.06816316 -0.015746793 -0.00051669276
0.038712483 0.058026433 -0.036729142 0.007859184 0.016921366 -0.05089377 -0.0026826626 0.0820612
0.014609814 -0.05535295 -0.03033225 -0.036517352 0.015461046 0.0030292019 -0.04120235 -0.0713649
0.008528147 -0.038633585 0.007969359 0.0034588173 -0.024324302 -0.012625249 -0.016512658 -0.06688107
-0.09957939 -0.065177746 -0.068580896 -0.04664627 0.07421268 0.049365018 -0.06570559 -0.011702184
0.11035096 0.03699867 0.0012693801 -0.020292353 0.0036956752 -0.022011114 0.032693155 -0.0054328474
0.036751203 -0.034689244 0.053786073 -0.02078466 -0.026070531 0.030457338 -0.045709964 -0.034618944
-0.02656084 -0.036714125 0.026963126 0.031989135 0.007461503 -0.009822631 0.017211936 -0.04660194
0.01529319 0.035936162 -0.026251988 0.010948548 0.015828747 0.031750903 0.054898422 0.021806978
-0.018816974 -0.057818964 -0.009976964 0.043014545 -0.014359082 0.043841433 -0.04496384 -0.023149744
-0.009327118 -0.05432869 -0.017079659 -0.011639191 0.020596122 0.056177083 0.03516763 -0.0061238282
0.12215968 0.020838408 -0.03416919 0.042163737 0.046579015 0.0233315 0.036308814 0.048528917
-0.019278465 -0.051859118 0.012767239 0.051766332 0.039254196 -0.018066462 0.005719429 -0.010113963
-0.029038554 0.018687118 0.0016564444 -0.03617345 -0.032308273 -0.11145535 0.027896704 -0.0026979193
0.012852174 0.03848951 0.045275047 0.0074565043 -0.057913873 -0.0221594 -0.043086298 0.006153917
0.025115354 0.024814887 -0.033821534 -0.008811452 -0.0036121884 0.026997747 -0.05915018 -0.0021513372
-0.027365698 -0.0036109718 -0.012917467 -0.03572778 -0.0065279584 0.09661977 -0.07447637 0.049500998
-0.05586634 0.043870553 -0.039319724 -0.026759006 -0.051379874 -0.03339361 0.00077251846 0.01647936
0.010285072 0.03780042 0.03253617 -0.061500445 -0.005183268 -0.013516908 0.025768194 -0.02553074
-0.022776717 -0.020398146 -0.011426234 -0.008858691 0.030381327 0.02122622 0.042428803 -0.032045703
0.058895968 0.0011364274 0.036235545 0.020619882 0.032087624 0.07688994 -0.028874025 0.07483495
-0.046600915 -0.021507407 0.07475258 -0.009600752 -0.0073605874 -0.041102093 -0.039055616 0.04815734
0.01742541 -0.011231815 -0.019910084 0.048539367 0.017318979 0.034843728 0.04681481 0.0064395703
-0.021716492 -0.02722781 0.03195389 0.017740393 -0.04895036 0.082339056 -0.0003512128 0.0439923
0.0008928573 0.00017738299 0.019344684 0.043524075 -0.040924087 -0.007542132 0.012069673 -0.06111498
0.045710824 0.024093933 -0.023283299 0.0010686535 -0.0288427 0.014203703 0.06996688 -0.028267412
0.012632882 0.029079929 0.042071756 -0.0067356997 -0.09858143 0.0037578621 -0.039400313 -0.040599566
0.063547075 0.051620398 -0.015992405 -0.07453301 0.081699796 0.0229914 0.014637672 0.045490302
0.04254826 -0.067884885 -0.03470852 0.012792009 -0.02055072 0.04192882 0.025769934 -0.024572365

fc3.weight f4 [4, 300]
00000000: 3a2d 04bd b540 953e 1804 683e 886c 293d
00000010: 8bdd ccbd 78e5 943e e04b 5dbe 013c 0fbd
00000020: c831 8d3e 793f d43e fe85 9bbd d0b5 2a3b
00000030: 7012 11be 6fb7 1abd 6902 1cbe 233b 2fbe
00000040: 56f1 50be 4a0c 0f3d 8c56 2b3e 473c 003d
00000050: 2bcc ea3e 9711 2f3c b7f0 14be 33ca aa3e
00000060: 15b5 a7bb 571c 0a3e 0056 a4bc e45d db3e
00000070: 94db 91bd 4414 00be 28a4 92be dd58 1f3e
00000080: ccd9 c93e bbdd d4bd badc de3e d45f 60be
00000090: 6498 afbe 7656 1abe 132b dbbb c1ee aabc
000000a0: 1fec ffbc ea95 963d 3e14 a53e 0990 c2bd
000000b0: d113 c03c 38b3 c53e 6f6d 683e 1c08 4b3e
000000c0: fd8a 49be 1dbd ee3e 7f65 eabd 243a ffbd
000000d0: 6d1a 82be 24f8 903e e92d 773e 599d c63e
000000e0: 2ae7 703e b216 63be 271e dfbd f688 f23e
000000f0: e132 e7bd 7485 e1bd edca 18be 258e 253e
00000100: 5da1 2dbe 71e7 2b3f 5f19 243e fc87 c43e
00000110: 505b cb3e 3c98 4dbe dbd2 4b3d e518 6abc
00000120: 1370 00bd 7385 d0bd 6129 38be 1e99 4ebe
00000130: 4a55 2fbd c694 9f3b 562d 12be d3f9 f33d
00000140: 7ead e4bc 4af4 afbd 1c20 37be 1f0a 8dbd
00000150: 1947 373b f5b1 a8be cdc6 fbbd 95e6 25be
00000160: 4a8c 6abd c0bf a2bd c1d5 38bd f9a2 8abd
00000170: 411b b33d 6c0f fa3e 91c4 88bd 2320 3bbe
00000180: b9f4 a63d 811e 983e d411 b8bd 5057 123e
00000190: 17a2 67be af3a 593d 79b7 583e eba3 a5bd
000001a0: eeb3 37be 767e 26bd 2035 a83e 2d9b c93e
000001b0: b65d a53e 5af5 a23d fd03 8abe c547 0e3d
000001c0: 6474 1ebe de37 c13e 149d 66be 93ee 2b3e
000001d0: 9c2e 5bbe 1cfb 67be 1929 ff3d bcbd 90be
000001e0: ddcf 73be 8a9a ba3b 7714 bf3c 3950 8abe
000001f0: 9ffe a13e cbf4 6f3e 25ca c63d bbc3 38bc
00000200: 423f 38be 5abb a03e 50ee 79bd ddea 9ebe
00000210: 8de9 973e 5968 63be dd96 90be f634 af3e
00000220: 34c4 e23e eaca 0bbe 954f eebd 511e dfbd
00000230: 4965 033f 98b8 c13e 21c3 04bc 5e81 24be
00000240: b827 4c3e 1cb7 9dbe 7638 613e d0e9 a1ba
00000250: f95d 5a3e fcd3 babd 1468 95be a644 ae3e
00000260: 42a9 6e3d e374 913d 30b4 44be 5521 dd3e
00000270: a14c c43e f1a0 45bd 9b0b 8d3e 7fd4 52bd
00000280: 7964 bf3e 3a34 5c3c 28b2 0ebe 6333 bd3c
00000290: da03 b03d ae0e 8d3c 4a14 13be de97 6cbe
000002a0: d87c 0bbe beae c8bd 8ea7 d43d cb42 a13d
000002b0: e302 61be 9028 5f3e fab9 57be 45a5 813e
000002c0: 3fd7 663d 0f25 f13d c30b 333e 4af2 ad3e
000002d0: 07e3 bb3e cbd7 53be 3f9c 4cbd 4aea 5c3c
000002e0: 8063 8fbd 2f11 79be 3a6f 90be 2740 84be
000002f0: 20ea 0e3e ff35 23bd ce83 d1bc b0cd 7a3d
00000300: b03f 9b3e 4010 173f cc94 e5bd ea53 78be
00000310: 5f80 61bd 877a 07be bdfb 893e 742f 8a3d
00000320: 9d8c f0be ed37 fa3c 6316 3ebe 0e15 1d3e
00000330: 306b 8c3d 31b3 b0be 2472 2e3e 45d9 2c3c
00000340: e54a acbe 6197 183e f1ec 59be 8a55 a8bd
00000350: 2168 7b3e ca74 3dbe 09ae 9ebd 8e77 01be
00000360: ed73 4fbe 01e1 103d be02 04be 5087 4fbe
00000370: c442 aebe 47de 2f3e 190b 8fbd 3b45 7bbe
00000380: 2642 bbbe feab d43d c106 993d 4134 42be
00000390: 50a8 b0bc 9448 2dbe 3311 633d 44cd 5fbe
000003a0: c8af fd3e 6615 693d 2250 e23e 591a 053d
000003b0: c586 903d 5c6b 52be c8fc 8f3e e345 22bd
000003c0: 4ffc d6bd 00ef 1bbd 73b8 bc3e c330 aebe
000003d0: 49a0 e03e ce17 20be 0042 4f3d 9477 b0be
000003e0: b058 b93e 9b33 1a3f e629 5f3e dc80 933d
000003f0: 690b b03b 9ffb d73e cd04 eabd 5cd3 373c
-0.032269694 0.2915093 0.22657812 0.04136327 -0.100031935 0.2908132 -0.21610975 -0.034969334
0.27577043 0.41454676 -0.07593916 0.002604831 -0.1416719 -0.037772592 -0.15235294 -0.17112403
-0.20404562 0.03492383 0.16732234 0.031307485 0.45858893 0.010685346 -0.1454495 0.3335739
-0.005118022 0.13487373 -0.02006054 0.4284507 -0.07121959 -0.1250773 -0.28640866 0.15561242
0.39423978 -0.10393854 0.43527776 -0.21911556 -0.34295952 -0.15072045 -0.0066884845 -0.0208658
-0.031240521 0.073528126 0.32242006 -0.09500129 0.02344695 0.38613296 0.22697996 0.19827312
-0.19681926 0.46628657 -0.1144514 -0.12462261 -0.25410786 0.28314316 0.24138607 0.38791922
0.23525682 -0.22176626 -0.10894423 0.47370118 -0.11289001 -0.11011782 -0.1492116 0.16167505
-0.16956086 0.67150027 0.16025303 0.38384998 0.39718103 -0.20077604 0.049761634 -0.014288162
-0.031356882 -0.101817034 -0.17984535 -0.20175597 -0.042805947 0.00487003 -0.14275107 0.119128846
-0.027914759 -0.08591516 -0.17883343 -0.06886696 0.0027965961 -0.3294827 -0.122937776 -0.16201241
-0.057262696 -0.0794673 -0.045125727 -0.06769366 0.08745433 0.4883989 -0.06678117 -0.18273978
0.08152146 0.29710773 -0.089877754 0.1429112 -0.22620426 0.05303448 0.2116374 -0.080879055
-0.17939731 -0.040647946 0.3285303 0.39376202 0.32298058 0.07956953 -0.26956168 0.034736414
-0.15474087 0.37737936 -0.22520858 0.16790228 -0.21404499 -0.22654384 0.12459011 -0.28269756
-0.23809762 0.005694692 0.023325188 -0.2701433 0.31639573 0.23433225 0.09706525 -0.0112771345
-0.17992881 0.31392938 -0.061018288 -0.3103856 0.29670373 -0.22207774 -0.282401 0.34220093
0.44290316 -0.13651624 -0.11636273 -0.10894454 0.51326424 0.37836146 -0.008103163 -0.16064975
0.19937027 -0.30803764 0.21994194 -0.0012353007 0.2132491 -0.09122464 -0.29180968 0.3403675
0.058266886 0.071023725 -0.19209361 0.43189493 0.38339713 -0.04824919 0.27547917 -0.051472183
0.37381342 0.013440186 -0.13935149 0.023095792 0.085944846 0.017218914 -0.14363208 -0.23104808
-0.13621843 -0.097989544 0.10383521 0.07874068 -0.21973757 0.21792817 -0.21067038 0.25321403
0.05635762 0.117746465 0.17484955 0.33973914 0.36696646 -0.20687787 -0.049953695 0.013483593
-0.070014 -0.24322961 -0.2820986 -0.25830194 0.13956499 -0.039846417 -0.025575545 0.061231315
0.30322027 0.5900917 -0.112100214 -0.2425076 -0.055054065 -0.13230334 0.26949874 0.06747332
-0.4698228 0.030544246 -0.18563227 0.15340063 0.06856382 -0.34511712 0.17035729 0.010549848
-0.3365089 0.14901496 -0.21281792 -0.0821944 0.24551441 -0.18501583 -0.07748038 -0.12643263
-0.20259066 0.03537083 -0.12891671 -0.20266461 -0.34035313 0.17174636 -0.069845386 -0.24538128
-0.36573905 0.103843674 0.07471991 -0.18965246 -0.021564633 -0.16922218 0.055436324 -0.21855646
0.49548173 0.056905173 0.4420176 0.03249583 0.07056955 -0.20548767 0.28122544 -0.03961743
-0.10497343 -0.038069725 0.36859474 -0.34021577 0.43872288 -0.15634081 0.050600052 -0.3446623
0.36200476 0.60234994 0.21793327 0.07202312 0.005372454 0.4218416 -0.11426697 0.011219826

fc3.bias f4 [4]
00000000: 08ba 04bd 00d2 033d d170 a43d 5073 21bb
-0.032403976 0.032182693 0.080293305 -0.0024635382
